…
2023-01-21 23:16:37.156645: I tensorflow/core/common_runtime/gpu/gpu_device.cc:1406] Created TensorFlow device (/job:localhost/replica:0/task:0/device:GPU:0 with 10256 MB memory) -> physical GPU (device: 0, name: NVIDIA GeForce GTX 1080 Ti, pci bus id: 0000:00:0b.0, compute capability: 6.1)
X <class 'numpy.ndarray'> (7669, 256, 256)
Y <class 'numpy.ndarray'> (7669, 256, 256)
X expanded <class 'numpy.ndarray'> (7669, 256, 256, 1)
Y expanded <class 'numpy.ndarray'> (7669, 256, 256)
Model: "model"
__________________________________________________________________________________________________
Layer (type)                    Output Shape         Param #     Connected to                     
==================================================================================================
input_1 (InputLayer)            [(None, 256, 256, 1) 0                                            
__________________________________________________________________________________________________
batch_normalization (BatchNorma (None, 256, 256, 1)  4           input_1[0][0]                    
__________________________________________________________________________________________________
conv2d (Conv2D)                 (None, 256, 256, 64) 640         batch_normalization[0][0]        
__________________________________________________________________________________________________
conv2d_1 (Conv2D)               (None, 256, 256, 64) 36928       conv2d[0][0]                     
__________________________________________________________________________________________________
batch_normalization_1 (BatchNor (None, 256, 256, 64) 256         conv2d_1[0][0]                   
__________________________________________________________________________________________________
max_pooling2d (MaxPooling2D)    (None, 128, 128, 64) 0           batch_normalization_1[0][0]      
__________________________________________________________________________________________________
conv2d_2 (Conv2D)               (None, 128, 128, 128 73856       max_pooling2d[0][0]              
__________________________________________________________________________________________________
conv2d_3 (Conv2D)               (None, 128, 128, 128 147584      conv2d_2[0][0]                   
__________________________________________________________________________________________________
batch_normalization_2 (BatchNor (None, 128, 128, 128 512         conv2d_3[0][0]                   
__________________________________________________________________________________________________
max_pooling2d_1 (MaxPooling2D)  (None, 64, 64, 128)  0           batch_normalization_2[0][0]      
__________________________________________________________________________________________________
conv2d_4 (Conv2D)               (None, 64, 64, 256)  295168      max_pooling2d_1[0][0]            
__________________________________________________________________________________________________
conv2d_5 (Conv2D)               (None, 64, 64, 256)  590080      conv2d_4[0][0]                   
__________________________________________________________________________________________________
batch_normalization_3 (BatchNor (None, 64, 64, 256)  1024        conv2d_5[0][0]                   
__________________________________________________________________________________________________
max_pooling2d_2 (MaxPooling2D)  (None, 32, 32, 256)  0           batch_normalization_3[0][0]      
__________________________________________________________________________________________________
conv2d_6 (Conv2D)               (None, 32, 32, 512)  1180160     max_pooling2d_2[0][0]            
__________________________________________________________________________________________________
conv2d_7 (Conv2D)               (None, 32, 32, 512)  2359808     conv2d_6[0][0]                   
__________________________________________________________________________________________________
batch_normalization_4 (BatchNor (None, 32, 32, 512)  2048        conv2d_7[0][0]                   
__________________________________________________________________________________________________
max_pooling2d_3 (MaxPooling2D)  (None, 16, 16, 512)  0           batch_normalization_4[0][0]      
__________________________________________________________________________________________________
conv2d_8 (Conv2D)               (None, 16, 16, 1024) 4719616     max_pooling2d_3[0][0]            
__________________________________________________________________________________________________
batch_normalization_5 (BatchNor (None, 16, 16, 1024) 4096        conv2d_8[0][0]                   
__________________________________________________________________________________________________
conv2d_9 (Conv2D)               (None, 16, 16, 1024) 9438208     batch_normalization_5[0][0]      
__________________________________________________________________________________________________
up_sampling2d (UpSampling2D)    (None, 32, 32, 1024) 0           conv2d_9[0][0]                   
__________________________________________________________________________________________________
conv2d_10 (Conv2D)              (None, 32, 32, 512)  2097664     up_sampling2d[0][0]              
__________________________________________________________________________________________________
batch_normalization_6 (BatchNor (None, 32, 32, 512)  2048        conv2d_10[0][0]                  
__________________________________________________________________________________________________
concatenate (Concatenate)       (None, 32, 32, 1024) 0           batch_normalization_4[0][0]      
                                                                 batch_normalization_6[0][0]      
__________________________________________________________________________________________________
conv2d_11 (Conv2D)              (None, 32, 32, 512)  4719104     concatenate[0][0]                
__________________________________________________________________________________________________
conv2d_12 (Conv2D)              (None, 32, 32, 512)  2359808     conv2d_11[0][0]                  
__________________________________________________________________________________________________
up_sampling2d_1 (UpSampling2D)  (None, 64, 64, 512)  0           conv2d_12[0][0]                  
__________________________________________________________________________________________________
conv2d_13 (Conv2D)              (None, 64, 64, 256)  524544      up_sampling2d_1[0][0]            
__________________________________________________________________________________________________
batch_normalization_7 (BatchNor (None, 64, 64, 256)  1024        conv2d_13[0][0]                  
__________________________________________________________________________________________________
concatenate_1 (Concatenate)     (None, 64, 64, 512)  0           batch_normalization_3[0][0]      
                                                                 batch_normalization_7[0][0]      
__________________________________________________________________________________________________
conv2d_14 (Conv2D)              (None, 64, 64, 256)  1179904     concatenate_1[0][0]              
__________________________________________________________________________________________________
conv2d_15 (Conv2D)              (None, 64, 64, 256)  590080      conv2d_14[0][0]                  
__________________________________________________________________________________________________
up_sampling2d_2 (UpSampling2D)  (None, 128, 128, 256 0           conv2d_15[0][0]                  
__________________________________________________________________________________________________
conv2d_16 (Conv2D)              (None, 128, 128, 128 131200      up_sampling2d_2[0][0]            
…
conv2d_17 (Conv2D)              (None, 128, 128, 128 295040      concatenate_2[0][0]              
__________________________________________________________________________________________________
conv2d_18 (Conv2D)              (None, 128, 128, 128 147584      conv2d_17[0][0]                  
__________________________________________________________________________________________________
up_sampling2d_3 (UpSampling2D)  (None, 256, 256, 128 0           conv2d_18[0][0]                  
__________________________________________________________________________________________________
conv2d_19 (Conv2D)              (None, 256, 256, 64) 32832       up_sampling2d_3[0][0]            
__________________________________________________________________________________________________
batch_normalization_9 (BatchNor (None, 256, 256, 64) 256         conv2d_19[0][0]                  
__________________________________________________________________________________________________
concatenate_3 (Concatenate)     (None, 256, 256, 128 0           batch_normalization_1[0][0]      
                                                                 batch_normalization_9[0][0]      
__________________________________________________________________________________________________
conv2d_20 (Conv2D)              (None, 256, 256, 64) 73792       concatenate_3[0][0]              
__________________________________________________________________________________________________
conv2d_21 (Conv2D)              (None, 256, 256, 64) 36928       conv2d_20[0][0]                  
__________________________________________________________________________________________________
conv2d_22 (Conv2D)              (None, 256, 256, 2)  1154        conv2d_21[0][0]                  
__________________________________________________________________________________________________
conv2d_23 (Conv2D)              (None, 256, 256, 3)  9           conv2d_22[0][0]                  
==================================================================================================
Total params: 31,043,471
Trainable params: 31,037,581
Non-trainable params: 5,890
__________________________________________________________________________________________________
None
['76NM_' '47KD_' '70DC_' '8BM_' '71EA_' '94AS_' '41TC_' '30FD_']
Epoch 1/10
…
